Neural Network Tools for STM32AI v1.6.0 (STM.ai v7.2.0-RC5)
Created date          : 2022-11-14 10:10:10
Parameters            : generate --name network -m C:/Users/17460/Desktop/STM32/Project/model.h5 --type keras --compression medium --verbosity 1 --workspace C:\Users\17460\AppData\Local\Temp\mxAI_workspace12461646266207006879907593290253876 --output C:\Users\17460\.stm32cubemx\network_output --allocate-inputs --allocate-outputs

Exec/report summary (generate)
------------------------------------------------------------------------------------------------------------------------
model file            : C:\Users\17460\Desktop\STM32\Project\model.h5
type                  : keras
c_name                : network
compression           : medium
allocator strategy    : ['allocate-inputs', 'allocate-outputs']
workspace dir         : C:\Users\17460\AppData\Local\Temp\mxAI_workspace12461646266207006879907593290253876
output dir            : C:\Users\17460\.stm32cubemx\network_output
model_name            : model
model_hash            : 3b8ce54c1a2845a57ad45ed40af9fbe7
input 1/1             : 'input_0'
                        270 items, 1.05 KiB, ai_float, float, (1,90,3,1), domain:activations/**default**
output 1/1            : 'dense_3'
                        6 items, 24 B, ai_float, float, (1,1,1,6), domain:activations/**default**
params #              : 738,950 items (2.82 MiB)
macc                  : 875,232
weights (ro)          : 375,448 B (366.65 KiB) (1 segment) / -2,580,352(-87.3%) vs float model
activations (rw)      : 25,600 B (25.00 KiB) (1 segment) *
ram (total)           : 25,600 B (25.00 KiB) = 25,600 + 0 + 0

(*) input/output buffers can be used from the activations buffer

Model name - model ['input_0'] ['dense_3']
-----------------------------------------------------------------------------------------------------------------------------------------------------------------------------------------------
id   layer (type,original)                  oshape                    param/size          macc      connected to      |   c_size               c_macc              c_type                     
-----------------------------------------------------------------------------------------------------------------------------------------------------------------------------------------------
0    input_0 (Input, None)                  [b:None,h:90,w:3,c:1]                                                     |                                           
     conv2d_1_conv2d (Conv2D, Conv2D)       [b:None,h:89,w:2,c:128]   640/2,560           91,264    input_0           |   -2,560(-100.0%)      -91,264(-100.0%)   
     conv2d_1 (Nonlinearity, Conv2D)        [b:None,h:89,w:2,c:128]                       22,784    conv2d_1_conv2d   |                        -22,784(-100.0%)   
-----------------------------------------------------------------------------------------------------------------------------------------------------------------------------------------------
1    max_pooling2d_1 (Pool, MaxPooling2D)   [b:None,h:44,w:1,c:128]                       22,528    conv2d_1          |   +2,560(+100.0%)      +114,048(+506.2%)   optimized_conv2d_of32[0]   
-----------------------------------------------------------------------------------------------------------------------------------------------------------------------------------------------
3    flatten_1 (Reshape, Flatten)           [b:None,c:5632]                                         max_pooling2d_1   |                                           
-----------------------------------------------------------------------------------------------------------------------------------------------------------------------------------------------
4    dense_1_dense (Dense, Dense)           [b:None,c:128]            721,024/2,884,096   721,024   flatten_1         |   -2,523,072(-87.5%)   +128(+0.0%)         dense_wc4of32/nl_of32[1, 2]
     dense_1 (Nonlinearity, Dense)          [b:None,c:128]                                128       dense_1_dense     |                        -128(-100.0%)      
-----------------------------------------------------------------------------------------------------------------------------------------------------------------------------------------------
5    dense_2_dense (Dense, Dense)           [b:None,c:128]            16,512/66,048       16,512    dense_1           |   -57,280(-86.7%)      +128(+0.8%)         dense_wc4of32/nl_of32[3, 4]
     dense_2 (Nonlinearity, Dense)          [b:None,c:128]                                128       dense_2_dense     |                        -128(-100.0%)      
-----------------------------------------------------------------------------------------------------------------------------------------------------------------------------------------------
6    dense_3_dense (Dense, Dense)           [b:None,c:6]              774/3,096           774       dense_2           |                        +90(+11.6%)         dense_of32/nl_of32[o][5, 6]
     dense_3 (Nonlinearity, Dense)          [b:None,c:6]                                  90        dense_3_dense     |                        -90(-100.0%)       
-----------------------------------------------------------------------------------------------------------------------------------------------------------------------------------------------
model/c-model: macc=875,232/875,232  weights=2,955,800/375,448 -2,580,352(-87.3%) activations=--/25,600 io=--/0



Generated C-graph summary
------------------------------------------------------------------------------------------------------------------------
model name            : model
c-name                : network
c-node #              : 7
c-array #             : 17
activations size      : 25600 (1 segments)
weights size          : 375448 (1 segments)
macc                  : 875232
inputs                : ['input_0_output']
outputs               : ['dense_3_output']

C-Arrays (17)
--------------------------------------------------------------------------------------------------------------
c_id   name (*_array)             item/size       domain/mem-pool           c-type        fmt         comment
--------------------------------------------------------------------------------------------------------------
0      input_0_output             270/1080        activations/**default**   float         float       /input 
1      conv2d_1_conv2d_output     5632/22528      activations/**default**   float         float              
2      dense_1_dense_output       128/512         activations/**default**   float         float              
3      dense_1_output             128/512         activations/**default**   float         float              
4      dense_2_dense_output       128/512         activations/**default**   float         float              
5      dense_2_output             128/512         activations/**default**   float         float              
6      dense_3_dense_output       6/24            activations/**default**   float         float              
7      dense_3_output             6/24            activations/**default**   float         float       /output
8      conv2d_1_conv2d_weights    512/2048        weights/weights           const float   float              
9      conv2d_1_conv2d_bias       128/512         weights/weights           const float   float              
10     dense_1_dense_weights      720896/360512   weights/weights           const float   c4 (LUT4)          
11     dense_1_dense_bias         128/512         weights/weights           const float   float              
12     dense_2_dense_weights      16384/8256      weights/weights           const float   c4 (LUT4)          
13     dense_2_dense_bias         128/512         weights/weights           const float   float              
14     dense_3_dense_weights      768/3072        weights/weights           const float   float              
15     dense_3_dense_bias         6/24            weights/weights           const float   float              
16     conv2d_1_conv2d_scratch0   512/2048        activations/**default**   float         float              
--------------------------------------------------------------------------------------------------------------

C-Layers (7)
----------------------------------------------------------------------------------------------------------------------
c_id   name (*_layer)    id   layer_type          macc     rom      tensors                       shape (array id)   
----------------------------------------------------------------------------------------------------------------------
0      conv2d_1_conv2d   1    optimized_conv2d    136576   2560     I: input_0_output             (1,90,3,1) (0)     
                                                                    S: conv2d_1_conv2d_scratch0                      
                                                                    W: conv2d_1_conv2d_weights    (1,128,2,2) (8)    
                                                                    W: conv2d_1_conv2d_bias       (1,1,1,128) (9)    
                                                                    O: conv2d_1_conv2d_output     (1,44,1,128) (1)   
----------------------------------------------------------------------------------------------------------------------
1      dense_1_dense     4    dense               721024   361024   I: conv2d_1_conv2d_output0    (1,1,1,5632) (1)   
                                                                    W: dense_1_dense_weights      (5632,1,1,128) (10)
                                                                    W: dense_1_dense_bias         (1,1,1,128) (11)   
                                                                    O: dense_1_dense_output       (1,1,1,128) (2)    
----------------------------------------------------------------------------------------------------------------------
2      dense_1           4    nl                  128      0        I: dense_1_dense_output       (1,1,1,128) (2)    
                                                                    O: dense_1_output             (1,1,1,128) (3)    
----------------------------------------------------------------------------------------------------------------------
3      dense_2_dense     5    dense               16512    8768     I: dense_1_output             (1,1,1,128) (3)    
                                                                    W: dense_2_dense_weights      (128,1,1,128) (12) 
                                                                    W: dense_2_dense_bias         (1,1,1,128) (13)   
                                                                    O: dense_2_dense_output       (1,1,1,128) (4)    
----------------------------------------------------------------------------------------------------------------------
4      dense_2           5    nl                  128      0        I: dense_2_dense_output       (1,1,1,128) (4)    
                                                                    O: dense_2_output             (1,1,1,128) (5)    
----------------------------------------------------------------------------------------------------------------------
5      dense_3_dense     6    dense               774      3096     I: dense_2_output             (1,1,1,128) (5)    
                                                                    W: dense_3_dense_weights      (128,1,1,6) (14)   
                                                                    W: dense_3_dense_bias         (1,1,1,6) (15)     
                                                                    O: dense_3_dense_output       (1,1,1,6) (6)      
----------------------------------------------------------------------------------------------------------------------
6      dense_3           6    nl                  90       0        I: dense_3_dense_output       (1,1,1,6) (6)      
                                                                    O: dense_3_output             (1,1,1,6) (7)      
----------------------------------------------------------------------------------------------------------------------



Number of operations per c-layer
-------------------------------------------------------------------------------------------------------------
c_id    m_id   name (type)                          #op (type)                       #param (sparsity)      
-------------------------------------------------------------------------------------------------------------
0       1      conv2d_1_conv2d (optimized_conv2d)           136,576 (smul_f32_f32)              640 (0.0000)
1       4      dense_1_dense (dense)                        721,024 (smul_f32_c4)           721,024 (0.0000)
2       4      dense_1 (nl)                                     128 (op_f32_f32)                            
3       5      dense_2_dense (dense)                         16,512 (smul_f32_c4)            16,512 (0.0005)
4       5      dense_2 (nl)                                     128 (op_f32_f32)                            
5       6      dense_3_dense (dense)                            774 (smul_f32_f32)              774 (0.0000)
6       6      dense_3 (nl)                                      90 (op_f32_f32)                            
-------------------------------------------------------------------------------------------------------------
total                                                       875,232                         738,950 (0.0000)

  Number of operation types
  ---------------------------------------------
  smul_f32_f32             137,350       15.7%
  smul_f32_c4              737,536       84.3%
  op_f32_f32                   346        0.0%

Complexity report (model)
------------------------------------------------------------------------------------
m_id   name              c_macc                    c_rom                     c_id  
------------------------------------------------------------------------------------
1      max_pooling2d_1   |||               15.6%   |                  0.7%   [0]   
4      dense_1_dense     ||||||||||||||||  82.4%   ||||||||||||||||  96.2%   [1, 2]
5      dense_2_dense     |                  1.9%   |                  2.3%   [3, 4]
6      dense_3_dense     |                  0.1%   |                  0.8%   [5, 6]
------------------------------------------------------------------------------------
macc=875,232 weights=375,448 act=25,600 ram_io=0

Generated files (7)
--------------------------------------------------------------------------
C:\Users\17460\.stm32cubemx\network_output\network_config.h
C:\Users\17460\.stm32cubemx\network_output\network.h
C:\Users\17460\.stm32cubemx\network_output\network.c
C:\Users\17460\.stm32cubemx\network_output\network_data_params.h
C:\Users\17460\.stm32cubemx\network_output\network_data_params.c
C:\Users\17460\.stm32cubemx\network_output\network_data.h
C:\Users\17460\.stm32cubemx\network_output\network_data.c
